final-models/nn_model.pth (torch, 27922 bytes, 5 tensors)

layers.0.weight f4 [82, 21]
000000 dd 33 d3 3e c4 3a b8 bf 41 94 81 be ba 2f 08 3f
       0.41250506 -1.4392934 -0.2530842 0.53197825
000010 e3 96 df 3f cd df bf 3f 5f b4 6d 3f e2 8e 8a 3f
       1.7467922 1.4990174 0.9285335 1.0824854
000020 9a db 08 bf 84 60 81 3f 27 22 67 3f 50 54 12 bf
       -0.53460085 1.0107579 0.9028649 -0.571599
000030 60 93 79 3f 08 ef d0 3f 99 e4 e0 3e 83 71 fd bd
       0.974905 1.6322947 0.43924406 -0.12375166
000040 eb 60 2c bf 71 86 10 40 b3 3c 22 3f 4e 61 0f 3f
       -0.67335385 2.2582057 0.6337387 0.5600785
000050 a9 3a e2 3d d4 20 14 bf 7c 99 50 bf a7 d7 ae be
       0.11046345 -0.5786259 -0.814842 -0.34148905
000060 cc 2d 41 bf bc 69 08 bf 2e 57 0e bf 2e 41 d2 be
       -0.75460505 -0.5328634 -0.55601776 -0.41065353
000070 85 fd d5 be 3b c4 c8 be c1 ef cb be 7b 2e cc be
       -0.41794983 -0.39212212 -0.39831355 -0.39879212
000080 73 fe 1f bf 40 80 ad be 14 41 20 bf 72 90 ba be
       -0.62497634 -0.3388691 -0.625993 -0.36438328
000090 04 2c 36 bf 41 03 5d be 41 b3 0f bf 86 f7 e2 be
       -0.7116091 -0.21583273 -0.56132895 -0.4432947
0000a0 45 30 b7 be cd 1c c1 be 70 85 43 be 5c 14 13 3e
       -0.35779014 -0.37717286 -0.19093871 0.14363235
0000b0 cd a6 14 3d 2e d3 24 3e 6e a9 35 3e 4d 0d 56 be
       0.036291886 0.16096184 0.17740414 -0.20903511
0000c0 0a fa 78 3d 2c 7f e5 3d c1 38 dd 3d 84 eb be 3d
       0.06078533 0.11205897 0.108018406 0.09322265
0000d0 d6 38 49 3e 87 b2 bc 3d 89 89 1a 3e a9 44 32 be
       0.19650587 0.09213739 0.15091528 -0.17409004
0000e0 a6 b8 f1 bc 0c c8 8d bd 6a 05 4b 3e 2d a5 47 3e
       -0.029506993 -0.069229215 0.19826284 0.19496603
0000f0 84 6b 34 3e eb 84 a7 3d 66 52 e9 bd e4 0b 95 be
       0.17619139 0.08179649 -0.113926694 -0.29110634
000100 c6 ea c4 be 48 04 65 be 23 3c b8 be 9a 52 8f be
       -0.38460368 -0.22364914 -0.3598338 -0.27992707
000110 6b 1d 98 be b7 89 ac 3e bd 43 db bd 0b d1 34 be
       -0.29709944 0.33698818 -0.107062794 -0.17657869
000120 00 6b 9c be 35 8a 7d be 15 41 22 be 9c 9f 76 bd
       -0.30550385 -0.24759753 -0.1584514 -0.06021081
000130 49 05 9a bd 35 d7 02 bf a5 2a b1 be f6 65 54 be
       -0.07520539 -0.5110963 -0.34602848 -0.2074202
000140 35 03 ad be d1 7d e0 be c6 2a aa be d9 b3 72 be
       -0.3379151 -0.4384599 -0.3323576 -0.23701419
000150 29 1e 40 3f ee 64 b1 bf 3c 70 78 3e 99 d4 2f 3f
       0.7504602 -1.3858926 0.24261564 0.68683773
000160 e8 64 fa 3f 91 3b c8 3f 03 1b a7 3f e2 a1 9e 3f
       1.9562044 1.5643178 1.3055118 1.2393153
000170 0b 5f f3 be ff 9d 9a 3f 9c 83 81 3f 1d 7d fe be
       -0.4753345 1.2079467 1.0118289 -0.4970483
000180 6e 0f ac 3f ed 14 d5 3f 47 6c 2c 3f 45 2e 1c be
       1.3442209 1.6647011 0.6735272 -0.15252025
000190 be a8 c1 be e0 cd 09 40 a5 b0 46 3f f0 31 6f 3f
       -0.37824053 2.1531906 0.7761329 0.93435574
0001a0 a2 40 3c 3e 1e 63 c9 3e e7 36 a3 bf c6 fb 47 3e
       0.1838403 0.39333433 -1.275113 0.19529638
0001b0 b1 2b 19 3f cb db bb 3f 0e 29 b0 3f f8 6c 8e 3f
       0.5983229 1.467645 1.3762529 1.1127005
0001c0 9a 6c 92 3f ac 55 9a be f0 70 61 3f 20 2b 59 3f
       1.1439393 -0.30143487 0.88062954 0.8483143
0001d0 fe 82 d2 be dd 7b 82 3f 51 0e c2 3f 16 43 ff 3e
       -0.41115564 1.019405 1.5160619 0.4985587
0001e0 db 18 2f bc 25 df 01 bf 96 93 03 40 72 89 1e 3f
       -0.010687078 -0.50731117 2.055883 0.61928475
0001f0 c2 52 6a 3f f1 75 60 3d 55 f0 cc be e6 71 b2 be
       0.9153253 0.054799978 -0.4002711 -0.34852523
000200 d0 89 30 bf cd 88 e8 be d6 a7 56 be c8 bc 00 3e
       -0.68960285 -0.4541687 -0.20962462 0.12572014
000210 1d 1d 8e be a0 73 89 3e bd e6 7b be 5a 0a 44 bf
       -0.27756587 0.26846027 -0.24599738 -0.76578295
000220 59 7a e7 3d 20 68 a3 be a7 e5 87 be db 02 36 bf
       0.11302633 -0.3191538 -0.26542398 -0.7109811
000230 fa 37 f2 be 99 97 ac be ad 28 b8 3e 0a b9 c9 3e
       -0.47308332 -0.3370941 0.35968533 0.39398986
000240 22 3d 31 be 01 43 d8 be 90 50 fa be 41 f3 63 be
       -0.17308477 -0.4223862 -0.4888959 -0.22260763
000250 da 66 48 bf 77 e0 f3 be 8e 75 85 be ab 6f 42 be
       -0.7828194 -0.4763219 -0.2606625 -0.1898791
000260 8d 1c 98 be 3f 0e 12 3f 3c 03 71 be 02 14 de bd
       -0.29709283 0.5705299 -0.2353639 -0.1084366
000270 9d a1 ba be 32 4b cc be e1 5c 22 be 97 da fb be
       -0.36451426 -0.3990112 -0.15855743 -0.49190208
000280 c6 ad d1 be 3e 15 26 bf 94 94 ff be 58 87 0a 3e
       -0.4095289 -0.64876163 -0.49918044 0.13528192
000290 1d 26 ea be 85 7b 20 be 94 5a 4e bd ca 65 87 be
       -0.45732203 -0.15672119 -0.05037935 -0.26444846
0002a0 3a 99 73 be 6e e5 a7 be 81 fc 06 bf b3 e1 19 bf
       -0.2378892 -0.32792228 -0.5272904 -0.60110015
0002b0 1e 52 02 bf d6 ec 05 bf 95 a6 0a bf 89 11 f6 be
       -0.5090655 -0.5231451 -0.54160434 -0.48060253
0002c0 6e d6 80 be 4d c3 d3 be 9e 6d 15 bf e2 46 e3 be
       -0.25163597 -0.4135994 -0.5837039 -0.44390017
0002d0 87 b7 89 be 2d 1d 18 bf 8c 1e 47 3e 5c 18 84 be
       -0.26897833 -0.5941952 0.19445246 -0.25799835
0002e0 41 c5 12 bf e1 a9 80 be 4f 9f 87 be ff ef ee be
       -0.57332236 -0.25129607 -0.2648873 -0.46667477
0002f0 0c 63 d6 be f9 83 d8 bd 38 91 b4 bd ed 91 23 3e
       -0.41872442 -0.10572047 -0.08816761 0.15973635
000300 8e cf 48 bd 75 ec ba 3c 03 20 50 be 20 01 5a 3e
       -0.049026065 0.02281783 -0.20324712 0.21289492
000310 46 a5 4a 3e f1 17 8a 3d 73 bc 97 bd fe 15 09 bd
       0.1978961 0.06742848 -0.07408991 -0.03346824
000320 da 4b 8d bd 2f 40 48 bc 94 42 16 bc 50 bb 48 3e
       -0.06899233 -0.012222334 -0.009171147 0.19602704
000330 44 67 84 bd 5e 97 22 3e 1f 61 c0 3d b5 02 58 bd
       -0.06465009 0.15878054 0.093935244 -0.052736957
000340 37 70 20 3e e3 c7 2f bd 28 3e dc be d0 84 d8 be
       0.15667807 -0.042915236 -0.4301617 -0.42288828
000350 64 9d 1f bf 6d e4 d0 be 0c 89 ba be 2b 58 a5 be
       -0.62349534 -0.40799275 -0.36432683 -0.3229383
000360 c1 73 19 bf 9f 19 0e bf 2c 03 df be ba 65 16 bf
       -0.5994225 -0.55507845 -0.43557107 -0.5874897
000370 4e b4 1a bf 54 81 22 bf 85 d4 b0 3e 01 6b fc be
       -0.60431373 -0.6347859 0.3453714 -0.49300388
000380 cb 6d 25 bd 3d 3c 0e bf c6 f5 60 be 13 0a e3 be
       -0.04038791 -0.55560666 -0.21968755 -0.44343624
000390 ae 51 23 bf c6 ed 1b bf 69 f9 d2 be 99 2d 44 3f
       -0.6379651 -0.6090969 -0.4120591 0.76632077
0003a0 aa 5e a7 bf 5b 2b 54 3d 6f 26 76 3f 7f 2f ea 3f
       -1.3075764 0.05179916 0.96152395 1.8295745
0003b0 30 0c ee 3f 37 a2 bb 3f 0c 32 aa 3f 42 57 9a be
       1.8597469 1.4658879 1.3296523 -0.30144697
0003c0 38 af 94 3f eb ad 85 3f ed 1e 51 be 5b 3b 95 3f
       1.1615973 1.04437 -0.20421953 1.1658739
0003d0 c9 fa fb 3f 20 13 18 3f b3 0e 95 bd a5 47 0e bf
       1.9685909 0.5940418 -0.07278194 -0.5557807
0003e0 eb 96 17 40 52 06 59 3f 7b 85 5b 3f 40 46 41 3e
       2.3685863 0.8477527 0.8575055 0.18874454
0003f0 6f 44 4a 3d 7f 01 11 be ff b1 1d be 62 07 86 bd
       0.04938167 -0.14160727 -0.15399931 -0.06544377

layers.0.bias f4 [82]
000000 62 d3 02 3f 9f 91 87 be 04 8a 23 3e ea b8 89 be
       0.51103795 -0.26478288 0.15970618 -0.2689889
000010 05 27 66 3f 90 19 24 3f c8 63 83 be de 42 96 be
       0.8990329 0.64101505 -0.25662065 -0.2934789
000020 b5 07 dd be c5 3d 5e 3b b7 5f 9a be 92 45 3f 3f
       -0.43169942 0.003391133 -0.3015115 0.7471553
000030 cc 10 57 be c7 76 a3 be ad 1f 80 bb 6c 57 60 3f
       -0.21002501 -0.31926557 -0.003910026 0.87633395
000040 3e 97 58 3e ef 11 78 3d 8f d7 d9 bd 48 ad 71 be
       0.21151444 0.060563978 -0.10636818 -0.23601258
000050 ac 56 1d be 25 4d 88 be 5c e3 66 be c5 96 18 be
       -0.15365094 -0.26621357 -0.22547668 -0.14901264
000060 e3 a6 19 be 93 bf ee bd 2c 74 06 be a1 78 4e 3e
       -0.15005068 -0.11657634 -0.13130254 0.20163204
000070 a3 a5 10 bf 7c 4a 1e be cf e0 38 3f bf 7a 77 3c
       -0.5650274 -0.15458101 0.7221803 0.015104949
000080 82 e0 b5 be 5a f9 7e 3f 0f d9 22 bf 1d 21 0e bf
       -0.35522848 0.9959923 -0.63612455 -0.55519277
000090 2b 9b e7 be 02 a4 f6 be 08 90 18 be 71 94 4b be
       -0.4523557 -0.48172003 -0.14898694 -0.19880845
0000a0 c9 92 24 bf 58 db 1d be b0 ac 20 3e 9c 59 27 bf
       -0.64286476 -0.15415704 0.15690875 -0.6537111
0000b0 1f 99 84 be 9d 70 ab be d5 ef c4 be cc d7 4a be
       -0.25898072 -0.33484355 -0.38464227 -0.19808882
0000c0 9c 3c 90 bd fb 1d ad bc aa 57 38 bd 39 67 c7 bc
       -0.0704281 -0.02113246 -0.045005478 -0.024341213
0000d0 fe 11 c8 be ff 9c 7e 3e b5 93 9d 3d 1e b4 fb be
       -0.39076227 0.24864577 0.076941885 -0.49160856
0000e0 be 01 fe bd dc 44 f9 bc 8f 8f 26 bf 1f 36 7b 3b
       -0.12402676 -0.030428343 -0.65062803 0.003833182
0000f0 72 34 d8 be b6 8f f4 bd ae d7 e3 bb 4f 31 5a be
       -0.42227513 -0.11941473 -0.0069532013 -0.21307872
000100 55 8d 09 be df 5b 0b bd e9 89 89 be 32 a2 06 bd
       -0.1343282 -0.034023162 -0.2686303 -0.032869525
000110 51 ad 9e be d7 30 0b be 7d 61 cf bd 63 f1 b4 3c
       -0.30991605 -0.1359285 -0.10126016 0.022087758
000120 e8 d1 f1 bd 0d 71 df be df 94 1c bf af a9 3a 3d
       -0.118076146 -0.43640938 -0.6116466 0.04557198
000130 1a fa 2e 3f 05 12 17 bd d8 09 52 bd 1a 00 24 3e
       0.68350375 -0.03688242 -0.05127892 0.16015664
000140 43 52 0d 3d 77 ec 3e be
       0.03450228 -0.18644892

layers.2.weight f4 [54, 82]
000000 c8 44 c7 bd 33 38 94 be b0 9f 10 bd 2d dd 42 be
       -0.09729916 -0.28949127 -0.03530854 -0.19029684
000010 27 38 28 bd 53 19 c9 bd 71 fe 4f 3e 31 4e 89 be
       -0.041069176 -0.09819283 0.20311905 -0.26817468
000020 08 ae ba 3e 04 d4 5e 3c 54 c7 03 3f b8 20 1f be
       0.364609 0.013600353 0.51476026 -0.15539825
000030 1c d4 8f 3c ec 6b 82 be f0 12 b9 3c 76 74 94 bd
       0.017557196 -0.25472963 0.022592038 -0.07248776
000040 0b 34 59 bd 33 b7 84 3c a2 57 da 3e e2 19 0c 3f
       -0.053028148 0.016200637 0.42644984 0.54726994
000050 07 d6 9c bd 48 96 8d be 53 d7 8b be 14 87 35 3d
       -0.0765801 -0.27653718 -0.27312717 0.044318274
000060 79 07 9f 3d 1a 49 6f bd 7b 73 b3 3d 99 9f 0d bd
       0.07765097 -0.058419324 0.087622605 -0.034576032
000070 1a 67 3f 3e c3 6b 93 3d 64 20 7a be 8d e4 dd bd
       0.18691674 0.07198288 -0.24426419 -0.10834608
000080 92 17 73 3e f8 3c 53 be 4c 50 c7 3e d6 bd 8e be
       0.2373946 -0.20628726 0.3892845 -0.27879208
000090 1a 17 c4 be cf 68 bc 3e d6 9e 9b bb 44 19 78 be
       -0.38298875 0.36798713 -0.0047491593 -0.24228388
0000a0 55 d7 c1 3e dc 30 d8 3d 0b ea 0a bd a1 b3 8a be
       0.37859598 0.10556194 -0.033914607 -0.2709017
0000b0 f9 f4 ef 3e 47 d0 87 be b2 b6 06 3f 09 eb 53 bb
       0.46866587 -0.2652609 0.5262252 -0.0032336137
0000c0 82 f5 4f bd 8f 4a db 3c 5c 90 9d bc 98 67 be bd
       -0.050771244 0.02676895 -0.019233875 -0.09297103
0000d0 49 8f e5 3e c4 5b 2b be cd 4e a2 bc fb dd c0 3e
       0.4483588 -0.16734225 -0.019812966 0.37669358
0000e0 48 09 aa be 1a 7d c5 bc 33 d6 ba 3e 00 e8 34 bd
       -0.33210206 -0.024107505 0.36491546 -0.044166565
0000f0 a8 f3 b3 be cf de c2 bc ab 5b 68 bc 6d de 38 3c
       -0.35146832 -0.023787884 -0.014182012 0.011283499
000100 10 49 57 bc b4 0c b3 bb 13 93 5b be dc 8b 19 be
       -0.013139978 -0.005464161 -0.21442823 -0.14994758
000110 30 d0 82 be ea c5 df bd c2 11 8b be 89 2b b2 3c
       -0.2554946 -0.10926421 -0.27161986 0.021749275
000120 1d ae 33 bd 4f a9 0b be cd 6f b9 be 5d 4b 2e bc
       -0.04386722 -0.13638805 -0.3621811 -0.010638085
000130 9a fd 5f be a1 a4 d2 bc 0c c7 12 3c 67 e4 b0 3d
       -0.21874085 -0.025713267 0.008958589 0.08637314
000140 55 0f 94 bc a1 2a bd bd 50 6f ee 3b 10 a5 17 3e
       -0.018073717 -0.092366464 0.007276453 0.1480906
000150 b4 20 23 bd 82 9a 8d be 99 16 a6 bd 4c f1 5e 3c
       -0.03982611 -0.27656943 -0.08109779 0.013607334
000160 a3 c3 c0 3e a6 2a 22 be 65 ff b5 3e b8 d5 d2 3d
       0.3764926 -0.15836582 0.35546413 0.1029467
000170 32 a5 b1 3e dd 37 d8 3c 67 f4 a3 3d 8a 7a 25 be
       0.34696347 0.026393825 0.080056004 -0.16160026
000180 ab bd 81 bd 0e ee c0 bc 6c 6b 83 bd ff 6a e0 3d
       -0.063350044 -0.023551013 -0.064169735 0.10957908
000190 79 a8 09 3f 1c 9d be 3e 21 0c e1 3c f6 bb 3a 3e
       0.53772694 0.3722924 0.027471604 0.18235764
0001a0 02 93 44 be 06 8c 5c 3d b7 c6 bc 3b 05 52 88 3b
       -0.19196704 0.053844474 0.0057609933 0.004160168
0001b0 70 6c 84 3d e6 3b 4d 3d de 1c ab 3e 5c 0a 02 3d
       0.06465995 0.05010595 0.3342046 0.03174816
0001c0 bd 24 29 be be 9e 4c be 98 00 aa 3e b5 fe 21 be
       -0.16517921 -0.1998243 0.33203578 -0.1581982
0001d0 a8 45 b8 3e 54 9e e8 3d e4 a1 89 be 72 ec aa 3e
       0.35990644 0.11358324 -0.26881325 0.33383518
0001e0 1e 61 2c 3d d8 cf d4 be 4a 63 bb 3e a3 dc 7b 3d
       0.042084806 -0.41564822 0.3659919 0.061489712
0001f0 93 3c 1a bc bc 07 ec 3d 42 9b 01 3f 59 fa 1d 3e
       -0.009413856 0.11524913 0.5062753 0.15427531
000200 0a bc b0 3e 81 7a d8 bd 53 3f 4a bd 64 22 a0 3c
       0.34518462 -0.10570241 -0.049376797 0.019547649
000210 27 c4 ae 3d 5f db c8 bd b6 9b a9 3e 52 77 a5 bd
       0.08533507 -0.09807467 0.3312661 -0.08079399
000220 bc ff b6 bd 99 19 c9 3e 31 a9 9f be b4 d7 4d 3d
       -0.08935496 0.39277342 -0.3118377 0.05025454
000230 a1 fe ec 3e 06 fb 91 3c 73 e3 0a 3e 37 b8 b8 3d
       0.46288016 0.017819893 0.13563327 0.09019511
000240 7e e4 b1 3d 82 ec c6 3b 27 25 a0 bd 07 79 92 3b
       0.086861596 0.0060706744 -0.07819586 0.004469994
000250 bf c1 c8 3e 3c e0 f7 bd 8d d1 68 be 17 e4 84 3b
       0.39210317 -0.12103316 -0.22736187 0.0040555107
000260 43 73 e7 bd 9c 62 66 bc 3d d1 88 3c f3 95 87 bd
       -0.11301281 -0.014061596 0.016701335 -0.066203974
000270 ae c2 96 bb e4 6e c6 bd 15 58 82 bc 14 3e f0 bb
       -0.0046008443 -0.096891195 -0.015911141 -0.007331619
000280 43 95 8b 3d 51 da 37 bd b2 aa 5c 3d 06 32 94 bd
       0.06815579 -0.044885937 0.053873725 -0.07236104
000290 4f 73 d2 be b1 4a 0a bf 47 80 c9 bc 04 b3 e0 be
       -0.41103598 -0.5402022 -0.0245973 -0.43886578
0002a0 02 99 b2 be d1 8c c8 be 79 6e ce be 16 01 dd be
       -0.3488236 -0.39169934 -0.4031866 -0.4316489
0002b0 48 6b ce be 18 76 95 3c e5 f2 f4 be 70 e3 0a bf
       -0.40316224 0.018244788 -0.47841564 -0.5425329
0002c0 37 48 2e 3d 72 21 06 bf 6a 5b c9 3d d8 64 d6 be
       0.04254934 -0.52394783 0.09831889 -0.41873813
0002d0 b4 74 8e 3d 7f 04 88 bd 7c 6e 04 bf a9 e9 bb be
       0.06955853 -0.066414826 -0.51731086 -0.36701706
0002e0 10 d5 dd 3d 8b 9a ee be b7 81 ac be 06 09 dc 3b
       0.10831654 -0.46602282 -0.33692715 0.006714943
0002f0 80 c2 59 bb ba fa 56 bd 55 11 86 3d f1 6a c4 bd
       -0.0033227503 -0.052485205 0.065462746 -0.0959071
000300 4a 69 b2 be 1c f4 52 3c 21 67 06 bf 37 d9 b3 be
       -0.34845954 0.012875583 -0.5250111 -0.3512666
000310 16 b9 df be 44 d0 05 bf bb f5 ca be 79 ef be be
       -0.43695897 -0.52270913 -0.39640602 -0.37292078
000320 c6 97 f5 be b4 be fa be 54 e3 84 bd 43 7a c3 3d
       -0.47967356 -0.4897362 -0.06488672 0.09544804
000330 57 5c f1 be b0 c8 a7 bd 12 e6 42 3c 81 49 b8 be
       -0.47140762 -0.08192575 0.011895673 -0.3599358
000340 8c 38 b8 be e7 ed dc be f8 50 0b bf 48 74 cf bd
       -0.35980642 -0.43150255 -0.54420424 -0.10129601
000350 81 fc 8f 3d a0 c0 c7 bd c7 a8 c5 bd d9 f3 8e bc
       0.07030583 -0.09753537 -0.09651332 -0.01745026
000360 3d da ac be 68 f4 ef be f5 97 62 bd 7c b0 bb be
       -0.33760253 -0.46866155 -0.0553207 -0.36658084
000370 d2 50 ba be 46 c1 a4 bd 00 6f 00 bf 12 33 40 bd
       -0.36389786 -0.080446765 -0.5016937 -0.046923704
000380 37 0c f4 be cb 93 d1 3d 53 11 49 bd cc 28 27 3d
       -0.4766557 0.102332674 -0.049088787 0.04081039
000390 f7 b1 c2 bd 2a 5b 88 3d e3 0d f3 be 17 8e b7 be
       -0.095066 0.06658013 -0.47471532 -0.35850593
0003a0 5d 5b ef be a3 ae 95 3d ab 19 f3 be 3f 15 69 3d
       -0.46749392 0.073087 -0.4748052 0.056905027
0003b0 14 b8 b6 3d bc ff cd be 08 ba bc be 87 ea 97 3d
       0.08921829 -0.40234172 -0.3686068 0.074177794
0003c0 16 10 ef be 66 59 b8 bd d0 59 c8 3c bc 39 6b 3d
       -0.4669196 -0.090014264 0.024456888 0.057428107
0003d0 27 af a0 bd 29 3f c7 be df 7a 0a bf 4d ee ee be
       -0.07845908 -0.38915375 -0.54093736 -0.46666184
0003e0 c5 e6 96 3d fe 4b b0 be 95 fc 04 bf 63 51 f2 be
       0.073682345 -0.34432977 -0.5194791 -0.47327718
0003f0 aa 16 aa be 38 c3 ad be 26 b6 01 bf dc 86 5f bd
       -0.33220416 -0.33938003 -0.5066856 -0.05457197

layers.2.bias f4 [54]
000000 f1 1b 97 bc 6b 90 6a 3e 6c b3 04 bf 38 69 eb be
       -0.01844594 0.22906654 -0.51836276 -0.45978713
000010 02 e4 c4 bd 76 be e1 3f a5 fc 9e ba b4 d3 c3 be
       -0.096138015 1.7636249 -0.0012129737 -0.38247454
000020 35 4a 1a 3e 98 6b 8b be ce cb b7 bd 1c 27 de be
       0.1506737 -0.27230525 -0.089744195 -0.43389213
000030 1a d5 fe be 0c 8e a8 be 61 1a 44 3f 06 73 a9 be
       -0.4977196 -0.32920873 0.7660275 -0.33095568
000040 b5 41 cd 3d 56 76 1b 3d d3 31 b0 3d 03 dc 2c 3d
       0.10022298 0.03795465 0.08603253 0.042202007
000050 f2 50 f4 be 51 c4 08 bd ca 3a b3 bd 48 7e e2 be
       -0.47718006 -0.033390347 -0.087514475 -0.4423697
000060 9e 1a 89 bc 4b 50 16 3e fd de d9 be c3 0c d9 be
       -0.016736325 0.14679067 -0.4255294 -0.4239255
000070 35 2c c6 bd a9 93 a7 be 65 40 5f 3e cd a4 32 3d
       -0.096764006 -0.32729843 0.21801908 0.043614198
000080 4d b3 be bd 41 87 4d be 18 82 af bd 6d 79 06 bf
       -0.09311543 -0.20071127 -0.08569735 -0.5252903
000090 fc 1a e1 be 1a df 4c 3e a3 9b 96 3a 2b d2 a6 be
       -0.439659 0.20006981 0.0011490475 -0.3258222
0000a0 57 65 9c be 80 d0 43 bd 96 3f f1 be f8 b4 c9 be
       -0.30546066 -0.047806263 -0.47118825 -0.3939588
0000b0 2b a3 f6 be 76 20 6f 3e 1b 77 dc be 0b b3 36 bd
       -0.48171362 0.23352227 -0.4305962 -0.044604342
0000c0 de 43 f8 be 6f e3 f4 be 35 b9 ec be 6f 29 d8 3d
       -0.4848928 -0.47829768 -0.46235052 0.10554778
0000d0 df 39 ac bd b0 48 13 3f
       -0.084094755 0.5753279

layers.4.weight f4 [1, 54]
000000 87 a1 23 be 69 8a db bd 2c 6e ae 3e 04 49 a3 3e
       -0.15979587 -0.10719759 0.3406843 0.31891644
000010 3a 7a 99 3d 2a 6e 4a 3f 55 e6 91 3c 87 6b d1 3e
       0.07494016 0.79074347 0.017810026 0.4090235
000020 ff 8a ef bd 6b 25 9d 3e 65 61 0e 3d 3e 90 b5 3e
       -0.11696433 0.3069261 0.03476085 0.3546161
000030 95 bd 04 bf 39 9a 86 3e 5e 91 25 bc 08 69 96 3e
       -0.5185178 0.26289538 -0.010105459 0.29377007
000040 bb 3c 17 be 0f dc 43 be f6 59 25 be b2 f3 fa bd
       -0.1476926 -0.19126914 -0.16147599 -0.122535124
000050 82 d9 a6 3e 96 ee 7a bd 3e a3 a1 bd a9 40 b4 3e
       0.3258782 -0.06126269 -0.07892464 0.35205582
000060 b8 84 c1 3d 33 22 ae bd 03 2f ab 3e 70 5e cc 3e
       0.09449142 -0.08502617 0.33434305 0.399158
000070 63 67 5d be 4d 3f 79 3e 45 a5 db bd a5 e5 e3 3d
       -0.2162147 0.24340554 -0.10724882 0.111277856
000080 15 44 8a bb d4 dc 5b be 0e c2 6d be 92 1c b8 3e
       -0.004219542 -0.21470958 -0.23218557 0.35959297
000090 a8 4c a0 3e a3 dd 83 bd 52 2c 1c be 5c ba c6 3e
       0.31308484 -0.06438758 -0.15251282 0.38814056
0000a0 04 e1 a4 3e 46 6b 02 be 8c 23 9f 3e 14 69 9c 3e
       0.32202923 -0.12736234 0.31081808 0.30548918
0000b0 ae 67 d3 3e c4 b7 02 be 82 b1 ab 3e 6e 4e 3d be
       0.4129004 -0.12765414 0.33533865 -0.1848695
0000c0 01 6e a2 3e 9d b7 a8 3e d8 9d ac 3e 79 fa fb 3d
       0.3172455 0.32952586 0.33714175 0.12303633
0000d0 51 f7 60 bd 83 60 00 3d
       -0.05492336 0.03134204
